robosuite/HER+DDPG/hindsight-experience-replay-latest/saved_models/PickPlaceiPhone/Model_dyn_rand_epoch_50.pt (torch, 569295 bytes, 8 tensors)

fc1.weight f4 [256, 35]
00000000: a2d8 b4be 041d 7fbe 6fdc 39be 2fe0 d83d
00000010: 17e8 ecbd 6315 573e d825 14bc 4fb6 aabd
00000020: 6f55 c0bd 6a99 123d 0971 25be 9b6a 513d
00000030: f8d4 2abe cde5 14be cdac 1abe 5774 2c3e
00000040: ec43 a2be 85c3 2e3e 9ed3 0dbe 4807 0b3b
00000050: 0636 a33d d86b 9cbd 6428 1bbc 61a6 013e
00000060: 5010 3dbe b602 113b da5b 25bf a02f ba3c
00000070: 40f3 c73d c4e2 ebbd d264 e43e 1bd2 03be
00000080: c3a0 d63e c3c8 fb3b 03c7 973e 75ce a5be
00000090: 7831 193d f8b1 d43c 5c9a 6ebe faa8 0abe
000000a0: 302a 75bd 8dca 30bf 54d2 15bd 553c abbc
000000b0: e545 36bd 6f96 9dbc 2abb 83be 4b5f 593d
000000c0: 036a 483e 225e 313c a093 5cbd 999d bb3e
000000d0: dbbc 75bd 9f72 3a3e 577b 573b f439 8bbe
000000e0: 0392 55be 51cb 253e 4f69 ccbd 3c41 76be
000000f0: 00cb 4e3d 09be b23e c21c 5cbd f590 88bd
00000100: cc52 d53d 1244 523d 4263 d9bd 8e80 c63e
00000110: 74ec e8be 027c 633e 5388 af3e 85c9 653e
00000120: 82fd 33be 4bad 1fbe f82f c73d 558a 6ebd
00000130: d6f3 a63e dfe9 0dbf c6b4 8a3e 9959 223d
00000140: b72f 2a3d c753 adbb 6b29 bcbd 3c36 c83d
00000150: c5e4 dcbd d32c 92be 2841 1abf 9b65 513e
00000160: e969 533e 62bb 44bd 7219 43be a4ab 8b3d
00000170: 8a82 40bd cbb7 443d 2323 08be 23a2 89bd
00000180: 2e44 c53c 50d6 23be 8e8b 223e 08a2 073e
00000190: f3bf acbc d889 3dbb 6be9 363e 04a7 803d
000001a0: 53be e8bd 307d 6bbe 88b7 f8bd ad82 1d3e
000001b0: 56b1 e13e 127a 943e 5ffe 023f 6549 81be
000001c0: 3ea6 c23d 6769 6ebe f5b0 663e 4f45 663d
000001d0: df65 dabd f9ef 4bbd 65fd a73d dc43 983d
000001e0: b4f5 a7bd ed19 aa3e 4f55 4c3d c9e6 2abe
000001f0: c561 0a3e 3a38 96bc c430 6e3d 8758 133d
00000200: bd79 c93d f8b1 f13d b116 bdbd 66c3 ab3c
00000210: 2aec 443e a4ba bebe 9041 0bbe 46b7 a4be
00000220: 3bac 8a3e 8e7a 763d 5fc2 b13e 1879 a9be
00000230: 481b 31bd 62c1 323e 8de2 3d3f 779e 183e
00000240: b070 b0bd cd64 fcbd e9c9 f4be 780f 38be
00000250: 2187 7ebe 3619 613d 0670 813d 4240 20bd
00000260: 78ca 49bc 829b 413e 21d3 e9bc 4819 3f3e
00000270: 23f9 433d 247f 40bd 2edc 54be c2e7 7a3d
00000280: 6e9a 0e3e d669 9b3d 10b9 21be 99b1 7e3e
00000290: 27d6 673d 6ab7 ca3d fd64 e0bc 9198 113e
000002a0: 3f1d 603e 84e5 af3e 55cd 0c3e 52a9 a6be
000002b0: 0015 4e3e 1559 023c ef5a 593e 2d44 bcbe
000002c0: f32d 12bf f193 f9bd b509 a23e e123 da3d
000002d0: f3a6 993c fc92 eb3e 48e7 ffbc 7868 c6be
000002e0: 5196 6ebd f299 823d beaf 33be 5a3e 893c
000002f0: 6766 a93e ffc3 37be 1606 c43d af77 e2be
00000300: 0dd4 a33d 9216 533e 2ec5 42be d51a 0b3e
00000310: f56b 4c3c d6a1 2bbe 24cf b73e 68d0 b8bb
00000320: f86c d4bd e6f4 1e3e a29c 983e 8cab 45be
00000330: 2ae6 933b 9713 ac3e 8463 82bd 3d9e 75bc
00000340: f410 643e 5f84 9f3e f6fc 63be 1dc1 08be
00000350: 9125 93bc a8d7 c5bd 79b1 3e3d f640 adbc
00000360: 02ce 65be 7d02 0bbf 6ef8 823d 7114 69be
00000370: d0f4 92be b784 38be 8085 f5bd 0d25 39be
00000380: 166d 95bd f450 ffbe 1060 f43c 9d9c 69be
00000390: f92b 92bd 0388 26be a8ea 21be 8751 5abe
000003a0: fa31 95be d8c9 97bd d6a9 39be 6100 8dbe
000003b0: c77b fa3d b4bc 9a3e 429e 53be dffb 57be
000003c0: 2ac8 2ebe afed 273e ed69 20bd abe6 983d
000003d0: 88f0 003e 1f8e b63e 636f 44be 9a3a a2be
000003e0: ee48 e53e 8871 cb3e c104 cc3e 807e 1fbd
000003f0: caef bb3e fc34 60be cc05 83be 316c b5be
-0.35321528 -0.24913412 -0.18150495 0.105896346 -0.11567705 0.21004252 -0.009042226 -0.08335554
-0.09391295 0.03579084 -0.161564 0.051127058 -0.16682804 -0.14540787 -0.15104981 0.16841255
-0.31692445 0.17066772 -0.13850257 0.0021214057 0.079692885 -0.07637757 -0.009470079 0.12661125
-0.18463254 0.002212686 -0.6459328 0.022727787 0.09763193 -0.115178615 0.4460817 -0.12873118
0.41919526 0.007683845 0.2964402 -0.32384077 0.037400693 0.025963768 -0.23301071 -0.13541022
-0.059854686 -0.6905907 -0.036577538 -0.020902792 -0.04450025 -0.019236771 -0.25728732 0.053069394
0.1957169 0.010825666 -0.053851724 0.36643675 -0.05999456 0.18207787 0.0032879913 -0.27192652
-0.2085648 0.1619084 -0.099810235 -0.24048322 0.050486565 0.3491061 -0.053738363 -0.06668273
0.10416183 0.05133445 -0.10614635 0.38769954 -0.454929 0.22215274 0.34283695 0.22440155
-0.17577174 -0.1559345 0.09725946 -0.058237392 0.32607907 -0.55434984 0.27091044 0.03963623
0.04154941 -0.005289528 -0.09187587 0.097759694 -0.10785822 -0.28549823 -0.6025567 0.20448916
0.2064587 -0.048030265 -0.19052675 0.06819847 -0.04699949 0.04802684 -0.13294654 -0.06720378
0.024080362 -0.15999722 0.15873548 0.13245404 -0.021087622 -0.0028921273 0.1786248 0.06281856
-0.113644265 -0.22996974 -0.12144381 0.1538188 0.4408061 0.28999382 0.5116939 -0.25251308
0.095043644 -0.23282395 0.22528441 0.05621844 -0.106639616 -0.049789403 0.08202628 0.07434818
-0.08201161 0.33222905 0.049886044 -0.166896 0.13513859 -0.018337358 0.058151975 0.035973098
0.09837673 0.11801523 -0.09232844 0.020967197 0.19230714 -0.3725177 -0.13599229 -0.32171077
0.27084526 0.06017547 0.34718606 -0.331002 -0.043238908 0.17456582 0.74173814 0.149042
-0.086152434 -0.12323914 -0.47810295 -0.17974651 -0.24856235 0.054955684 0.06320195 -0.03912378
-0.012316339 0.18906978 -0.028543057 0.18661988 0.047845017 -0.04699625 -0.20787117 0.061256178
0.13926098 0.07588546 -0.15793252 0.24872436 0.056600716 0.09898265 -0.027391905 0.14218356
0.21886156 0.34354794 0.13750203 -0.32551056 0.20125198 0.007955809 0.21226095 -0.36770764
-0.5710136 -0.12186421 0.3164803 0.106513746 0.018756365 0.46010578 -0.031238213 -0.38751578
-0.05824882 0.06377019 -0.17547509 0.016753364 0.3308594 -0.1794586 0.09571473 -0.44231936
0.0799943 0.20614079 -0.1902053 0.13584454 0.012476911 -0.16760954 0.35900223 -0.0056400783
-0.10372347 0.15523109 0.29807 -0.19303721 0.0045135217 0.33608696 -0.06366637 -0.01499134
0.22272092 0.3115568 -0.22264466 -0.13354917 -0.017962249 -0.09660274 0.04655597 -0.02114914
-0.22441867 -0.5430067 0.063950405 -0.22761704 -0.28702402 -0.18019377 -0.11988354 -0.1808054
-0.07296197 -0.4986645 0.029830962 -0.2281365 -0.07137293 -0.16262822 -0.1581217 -0.21320163
-0.29139692 -0.074115455 -0.18131194 -0.27539352 0.1223064 0.30222094 -0.2066584 -0.21092175
-0.17068544 0.16399263 -0.03916352 0.074658714 0.12591755 0.35655305 -0.19183116 -0.31685334
0.44782203 0.39735055 0.39847377 -0.038939 0.36706382 -0.21895212 -0.2559036 -0.35434106

fc1.bias f4 [256]
00000000: 747b 493c e958 c43c 3d65 51bd 8848 4fbe
00000010: 2bdb 0dbe 57c9 053e 6581 45be 6868 e9bd
00000020: 93af 75be 3a27 203c 22ea 7cbe 2f44 a53d
00000030: fda4 42be 863b b83d 3bc2 ffbd 2d05 7fbd
00000040: 9d9e 35bd 09f3 33be 9ed7 f2bd 846b 85be
00000050: 12ad 4ebe 59be 11bd d3cb 64be 0eb9 30be
00000060: 635a 8bbe 6879 93bd 6a54 2cbc 2d97 60bd
00000070: bbd8 99be 0e97 bfbc 18a6 b3bd 07f5 25be
00000080: 7582 a33c 2f8a 98be a512 ad3d 21a5 ae3d
00000090: 80e0 d2bd 2e42 a0bd 8518 20be 266e 803d
000000a0: 9c4d 6abd fb4e b5be 62fd a53b 93c3 5c3d
000000b0: 33f9 c0bd cccf 78bd 1c44 e9bd 943e 28be
000000c0: e727 bebd 3f7d 333d aff9 44be 34d5 bc3c
000000d0: 2e12 87bd 047b 56be 1b97 febd eb0f aabc
000000e0: 4b3a 4abe e969 31be 1b37 d6be 6309 3ebe
000000f0: bd92 0fbe 32fc 803c 753c b93d 7422 b8bd
00000100: 284e 45be 3697 84bd 6730 083e 308a 3bbe
00000110: 5aa5 853d fb61 e3bd dc47 45be 6b2a 4fbd
00000120: e4e6 c33d 125a dbbd 3571 cd3d ffed aebd
00000130: c029 97be 6d1c 5ebe fc23 58be 2321 76bd
00000140: 4253 a9bd 88db 8bbd 9ab1 82be b7ed dbbd
00000150: 1abd 70bd ecbd bdbd 541a a5bd 1d7b 18be
00000160: c4c5 8bbe 40de a53d 8844 0f3d 1880 5abd
00000170: 0544 a2bd c15e 45be 2fb4 94bd 296c cabe
00000180: 332b 45be 19fb 99bc f8a0 23be e0da 16be
00000190: 88f5 05be 40cb 43be 0728 35bd c59a 323e
000001a0: 4c55 27be 0e00 88be b714 aabd ea24 c9bd
000001b0: 5222 ba3c 749a 70be f2fa 94be 4588 00bd
000001c0: 151e b2bd 5a06 8fbd 6116 41be 4dc9 e6bd
000001d0: 296a ce3d 5ed6 acbd 262b efbc 1f06 43be
000001e0: 48a6 ab3c 464e 7e3c ac5f 28be 4eba 89be
000001f0: 7fa0 bebd dcd1 78be 6d52 bebd 3d2d 41be
00000200: 0a32 14be 4fe2 c03d e256 48be f959 fb3d
00000210: 7b88 413e 6672 4fbd 9672 10ba 047e f1bd
00000220: 71c0 67be a6d1 3abe a44e 74be e80e 313d
00000230: 3fc8 9ebe d7be 0fbe c9db debd c12d 8bbe
00000240: f481 34be 0e3a 6bbe 8da7 8dbd df48 17be
00000250: efb6 203d 8929 89be 1b69 57be a885 07be
00000260: 011f cabb bdf5 95be 76a3 a8bd 660f 75be
00000270: 2c5c 85bd 47a8 8abb 0e6a 97bb 4bd8 62bd
00000280: bf92 a3bd 79ac 59be 0875 85be 7b0b 17be
00000290: 44bd 8fbe 82b3 c1be 4f96 30be ff64 14bd
000002a0: 4793 41be 4a34 51be 69e0 83be 56c6 7ab9
000002b0: db67 f3bd 558d b1be 50fb 9ebe 4b14 65bd
000002c0: b6e1 073c eaec 4fbe 3004 c8bd 3f27 cdbd
000002d0: 83b0 bcbd 84ce 15be 395d 8eb9 dc6a 04be
000002e0: 7f62 41bd cad5 87be 2705 8bbe 9e26 d3bd
000002f0: 3d7c 49be 8d6c 6fbd 4b85 283d b190 b7be
00000300: 1f61 4cbe 25ae 64be 88ea 24be fecb 9cbd
00000310: ec93 b4be c440 cebd 0996 4bbe a326 8dbb
00000320: 3f5a 89be 5fed 773c e5f9 0c3e b76f cb3d
00000330: 8013 4bbe a615 9ebe 9b75 63be c95e c8bd
00000340: 5e88 1ebd ea81 7abd a021 a2bd ca99 b9bd
00000350: c71b 72be 1d3f d1bd d02a 42be 63ee 6f3c
00000360: 30cc 22be 0907 b3bb 17d3 31bd bf43 3abe
00000370: faad 6ebe 0c84 10bd a2e9 b0bd a472 afbe
00000380: 69b6 d0bd 9ba5 37be c393 c33c aa07 7ebe
00000390: 42eb fbbd 30b6 64be ffb1 1bbe b88f 52be
000003a0: 5551 39be 3c3d 4ebe e774 7fbe d9db f2bd
000003b0: 6ea4 4dbb 7a37 5fbe 04bd 5abe a04c b2be
000003c0: 0ccc 2d3d cbf1 4bbd 6e6b 03be 2163 0bbe
000003d0: fdcd 10be 2a8e 6fbd 8ccf d93c 81fe cebc
000003e0: 7a03 61bd 00d3 eebd cfde 82be 26d6 68be
000003f0: 1f0f 29bd bf35 25bd 4c44 6ebd a695 383c
0.0122975 0.023968177 -0.05112194 -0.20242512 -0.13853137 0.13065086 -0.19287641 -0.11396867
-0.23992757 0.009774977 -0.2469869 0.080696456 -0.1900825 0.08995728 -0.124882184 -0.062260795
-0.04434072 -0.1757318 -0.11857532 -0.2605859 -0.20183209 -0.03558192 -0.22343378 -0.17258093
-0.27217397 -0.07200891 -0.010518173 -0.054831672 -0.30048165 -0.023387458 -0.08771914 -0.16206752
0.019959668 -0.29792926 0.08450822 0.085275896 -0.10296726 -0.07825123 -0.15634353 0.06271009
-0.05720292 -0.3541182 0.005065606 0.05389745 -0.09422531 -0.060745046 -0.11389944 -0.16430122
-0.092849545 0.043820616 -0.19235872 0.023050882 -0.065952644 -0.20945364 -0.12431165 -0.020759543
-0.197488 -0.17325558 -0.41838917 -0.18558268 -0.1402082 0.015745256 0.090447344 -0.089909464
-0.19268095 -0.06474154 0.13299714 -0.18314433 0.06525679 -0.11102673 -0.19265693 -0.050577562
0.09565523 -0.10710539 0.10031358 -0.08541488 -0.2952404 -0.21690531 -0.21107477 -0.060090195
-0.08267833 -0.06828982 -0.25526124 -0.107387 -0.05877409 -0.0926474 -0.08061662 -0.14890714
-0.2729932 0.080990314 0.034977466 -0.053344816 -0.0792313 -0.19274427 -0.0726093 -0.39535645
-0.1925476 -0.01879649 -0.15979373 -0.14731932 -0.13081944 -0.19120502 -0.044227626 0.17441852
-0.16341132 -0.26562542 -0.08304732 -0.09821494 0.022721443 -0.23496419 -0.29097706 -0.031379957
-0.08697144 -0.06983633 -0.18856193 -0.11268864 0.10078842 -0.08439325 -0.02919538 -0.19045304
0.020953313 0.0155215915 -0.16442746 -0.26899952 -0.09307956 -0.24298805 -0.09293065 -0.18864913
-0.14472213 0.09418165 -0.19564393 0.1227302 0.1889972 -0.05064621 -0.00055102387 -0.11791614
-0.22632004 -0.18244037 -0.23858124 0.043227106 -0.3101215 -0.14037643 -0.108817644 -0.27183345
-0.17627698 -0.22971365 -0.069167234 -0.14773892 0.03923696 -0.267895 -0.21036188 -0.1323458
-0.0061682467 -0.29289046 -0.08234303 -0.23931655 -0.06511721 -0.004231486 -0.004620797 -0.055382054
-0.07986974 -0.212572 -0.2606585 -0.14750473 -0.28074086 -0.37832266 -0.17244838 -0.03622913
-0.18903838 -0.20430103 -0.2575715 -0.00023915744 -0.11885043 -0.3467814 -0.3105111 -0.055927556
0.00829356 -0.2030522 -0.09766424 -0.10017251 -0.092133544 -0.1462956 -0.00027153807 -0.12931389
-0.047213074 -0.26530296 -0.27152368 -0.103101 -0.196763 -0.05845313 0.041142743 -0.35852578
-0.19958924 -0.22332056 -0.16105092 -0.07656096 -0.35269105 -0.10070947 -0.19881453 -0.0043075844
-0.26826665 0.015132277 0.13767202 0.09933417 -0.19831657 -0.3087589 -0.22212832 -0.09783704
-0.03870427 -0.061159052 -0.0791657 -0.09062536 -0.23643409 -0.10217116 -0.18961644 0.014644238
-0.15898204 -0.005463485 -0.0434142 -0.18189906 -0.23308554 -0.03528218 -0.08638312 -0.3426715
-0.10191042 -0.17934267 0.02387417 -0.24807611 -0.12300731 -0.22335124 -0.15204619 -0.20562637
-0.18097432 -0.20140547 -0.24946938 -0.11858339 -0.0031378525 -0.21798506 -0.21361166 -0.34824085
0.042430922 -0.04979114 -0.1283395 -0.13612033 -0.14141078 -0.058485188 0.026588224 -0.025267841
-0.054934956 -0.11661339 -0.25560614 -0.22737941 -0.041274186 -0.04033446 -0.0581706 0.011266148

fc2.weight f4 [256, 256]
00000000: 91a1 93bd a2de 14bc cfb6 debc 23bb f8bc
00000010: bd75 5cbd 3ce2 85bd 45b1 38be f3f8 79bd
00000020: 63f0 cd3d 86dc bd3b 4655 edbd d91e 943d
00000030: cb85 863d 7a8c 37bd 30aa e03b 9b50 84bd
00000040: 2bb1 46bd 7412 e4bd 1855 51bc 1a2c 993a
00000050: 0dbd 4dbc 7e46 c9bc 856c 07be c402 a1bd
00000060: 9118 80bd a04f 8a3d d5cf a6bd 7069 903d
00000070: 290b 943d ce07 32be 9093 56bd 8640 2bbc
00000080: b642 0abe 219f a43b 3669 24bd 0442 00bd
00000090: 60a3 aebd 801c 54bd 836f c2bd 0b1d 60bd
000000a0: 00a6 b4bd 7454 51bd 1bab cabd 54bd 8cbd
000000b0: d9c7 08be 2325 8cbd ea73 9b3c b150 523b
000000c0: 18cf c9bd 021a 693d f2ab a5ba a96a eabc
000000d0: c471 3d3d 079b 9d3d 3d6d ed3d c697 68bc
000000e0: 9669 613d a6f6 3dbd 8633 3abd ed9a 9dbc
000000f0: b019 11be cf76 f6bd b948 efbd 9cd6 153d
00000100: 617d 06bc c819 fcbd 460b 19be 4ce1 e2bd
00000110: c9d0 9bbc 511d 16bd e9a6 b3bc 79c2 89bd
00000120: fa89 fa3c a2e6 e53c 00d1 11be 51ba 7dba
00000130: f8da 06be a2c0 d9bd 608e 24bc 6271 bbbe
00000140: feb3 46be ced2 003e 0dcb a53c 61eb adbd
00000150: d267 01bd 6ddc f9bd 1a30 7ebd bc67 2dbe
00000160: 5d2f 973d 09d1 53be 83e1 ebbd c1d4 9d3d
00000170: 57ed 66bb 6edd 143d a4d7 01be 1a1a c6b9
00000180: 7f93 b73d 1c3f b3bd dadf b6bd 97be c0bd
00000190: b3cf 74bd 343d ae3c 970b aabb 0128 c3bb
000001a0: eab1 2dbe aa3e 4fbd 685d e5bd 5535 4fbe
000001b0: 4eb9 d9bc 4acd 5cbd 5531 8bbd fccd b23a
000001c0: 5cea 09be f63d 81bc 43ac 50bd 73db 843d
000001d0: 8301 f2bc 8aff 2ebe 17ea ddbd cefa 96bd
000001e0: fd99 8bbd bff4 253d 5494 253d 2de1 9ebd
000001f0: 0df1 083e 0482 823c 1436 c13c 9596 8cbd
00000200: eafd ab3c 46a8 86bc f06f 0ebc d5f5 15be
00000210: f1e0 e5bd 5985 87bb e791 01bd 9730 223d
00000220: 3f5b 903b 091e b2bc e874 003c cc6f bd3d
00000230: 4d08 d53c 5f4e bfbc 5ea8 223c e971 02bd
00000240: f5ff d6bc 517a bb3d 2b52 f0bb 6376 c83c
00000250: b449 13be 7ac5 03be 1fe3 e3bd 0c90 423b
00000260: b4d4 76bd eda4 183d 7e11 21be 7654 db3c
00000270: dcc4 dbbd 858d 4e3d 8a8a 26be 3ce5 aabd
00000280: 26d7 72bc ae8b e8bc fadf 11be 9e54 82bd
00000290: 4bd9 a2bc ce39 593d d037 373d 3865 bdbc
000002a0: c38a 5d3d 7ac4 15be 9ef5 d33c fbef 20bd
000002b0: 1371 87bc f070 f2bd e0e9 41bc d591 21be
000002c0: 2709 0bbe cabc abbc 0b18 93bd a859 1b3c
000002d0: c393 abbd 7693 dc3d 7f78 c4bc 1480 fabd
000002e0: 7f96 cfbb 0966 40bd 04cb 683c 8640 98bd
000002f0: aba9 02bd 48af af3d 091c 31bd 265b 27bc
00000300: 418f d0bc f329 2f3d b9ea 0e3d 5835 5bbd
00000310: 4a94 3bbd 9d91 20bd 0cef aa3c 4763 63bc
00000320: daee f0bc 58e2 09be 6ace 32bc 89d1 cb3c
00000330: 8c36 873d f66d edbc d324 a03d 0c6d a63b
00000340: f737 15bd 8868 a4bc a439 8f3d 857d 4f3d
00000350: d703 213e ecce bfbc 17b6 4a3d 3639 97bb
00000360: 3a36 1dbd c528 47be f0f2 afbd 2b7a 14be
00000370: cff3 18bd 2801 2dbd 452b f03d 0199 febd
00000380: a401 d7bd fbaf 8c3c 2b65 81bc ee71 a03d
00000390: 15c7 913c 83f0 b3bd 4808 e7bd 62e4 913c
000003a0: 4fed 20be e2b1 62bd 846a 92bc d5ff 98bd
000003b0: 37d4 dbbd 76e3 dcbd 136a 1bbd 7d62 883c
000003c0: 3d1a b3bd 14f3 ecbd 66d0 d2bc e99e 7c3a
000003d0: 4910 4dbe dba2 82bd 71b6 0ebc d8c5 323d
000003e0: 2d88 99bc eb00 9ebd 735d 0dbe 4477 3fbb
000003f0: 065f 07be 817f d03d d96d c4bd 6835 c5bd
-0.07208551 -0.009086283 -0.02718678 -0.030362671 -0.05382322 -0.065372914 -0.18036373 -0.061028432
0.10055616 0.0057941107 -0.1158853 0.07232446 0.06568488 -0.044811703 0.0068562254 -0.06460687
-0.048508804 -0.11136332 -0.012776636 0.0011686117 -0.01255728 -0.024569746 -0.1322499 -0.078618556
-0.06254686 0.067534685 -0.081451096 0.070513606 0.07228691 -0.1738579 -0.05238682 -0.010452395
-0.1350201 0.0050238525 -0.0401394 -0.031312957 -0.08527255 -0.051784992 -0.094939254 -0.054715198
-0.088207245 -0.05110593 -0.09895917 -0.06872049 -0.13357486 -0.06843021 0.01897617 0.0032091553
-0.09853953 0.05690957 -0.0012639745 -0.028615313 0.046251073 0.07695585 0.11593101 -0.014196342
0.055032335 -0.0463778 -0.045459293 -0.019238913 -0.14169955 -0.1203438 -0.116837926 0.03658162
-0.008208604 -0.12309605 -0.14945707 -0.11078128 -0.019020455 -0.036649052 -0.021930175 -0.06726546
0.03058337 0.028064076 -0.14239883 -0.00096789474 -0.13169467 -0.10632445 -0.0100437105 -0.36609942
-0.19404599 0.12580416 0.020238424 -0.084921606 -0.03159315 -0.12200246 -0.062057592 -0.16934103
0.07382081 -0.2068521 -0.11517622 0.07706595 -0.003523668 0.036343984 -0.12679917 -0.0003778495
0.089636795 -0.087522715 -0.08929415 -0.09411352 -0.05976839 0.021269418 -0.00518937 -0.0059556966
-0.169624 -0.05059687 -0.111994565 -0.20235188 -0.026577618 -0.053906716 -0.06796519 0.001364171
-0.13468307 -0.015776616 -0.05094553 0.06487169 -0.029541736 -0.17089668 -0.10835665 -0.07372056
-0.0681648 0.04051661 0.04042466 -0.077577926 0.13373204 0.015931137 0.023585357 -0.06864659
0.0209951 -0.01643766 -0.00869368 -0.14644559 -0.11224545 -0.0041357693 -0.031633284 0.03959712
0.0044054086 -0.021742838 0.007840373 0.09249839 0.026004935 -0.0233528 0.009927837 -0.031846914
-0.026245097 0.091541894 -0.007334014 0.024470514 -0.14383584 -0.128683 -0.11127304 0.002968791
-0.060261443 0.03726666 -0.15729329 0.026773673 -0.10730907 0.050427932 -0.16263786 -0.08344504
-0.014821803 -0.028386917 -0.14245597 -0.06363796 -0.019879004 0.053033642 0.04473096 -0.023119554
0.05408741 -0.14625731 0.025873955 -0.039291363 -0.01653341 -0.11837947 -0.011835545 -0.15778287
-0.1357771 -0.020964045 -0.0718232 0.009481825 -0.08377793 0.107703134 -0.023983238 -0.1223146
-0.006335079 -0.04697231 0.014208559 -0.07434182 -0.03190009 0.08578354 -0.043239627 -0.010214603
-0.025458934 0.042764615 0.034891818 -0.05351767 -0.045795716 -0.039201368 0.02086594 -0.01387865
-0.029410768 -0.1346525 -0.010913471 0.024880188 0.06602201 -0.028983098 0.07819524 0.0050789174
-0.036430325 -0.020069376 0.06993416 0.050656814 0.15724121 -0.023414098 0.04949006 -0.0046149744
-0.038381793 -0.19449146 -0.085912585 -0.14499728 -0.03734189 -0.04223743 0.11727003 -0.12431527
-0.1049836 0.017173758 -0.015795311 0.0783423 0.017795125 -0.08786108 -0.112808764 0.017809097
-0.15715526 -0.055345424 -0.017873056 -0.07470671 -0.10733836 -0.10785572 -0.037942957 0.016648525
-0.08745239 -0.11569801 -0.025734138 0.00096367166 -0.20025744 -0.063787185 -0.00871049 0.04364571
-0.018741691 -0.07715019 -0.1380518 -0.0029215375 -0.13219842 0.101805694 -0.09591264 -0.09629327

fc2.bias f4 [256]
00000000: 71b6 5bbd edfc 4cbc b2d2 2b3c a1a6 11bd
00000010: 6be1 1bbe 6b9e 103c 99e3 33be cc57 2e3d
00000020: 6699 083d 0e68 29be 905f 28bb 7040 79bc
00000030: f27f 38be 9e0d 8b3c 053a e9bd f1c1 e0bc
00000040: c500 3c3d 1022 513b b106 51bc 58c0 e1bc
00000050: bf81 f9bd 4cd4 aebd bcac 62be f912 5bbd
00000060: 0c61 3fbd 79c4 16be 9f06 52bd 7906 5dbd
00000070: cecb 6b3b 4aaf 02be 4394 97bc c955 bcbd
00000080: 9a14 38be 0f30 66bd 8843 c0bd 0785 90bd
00000090: 9cdc 30bd 11c2 78be e2ff 43be fb36 20bd
000000a0: 5938 5c3d 0b62 83bd fdba 13bc d325 cbbd
000000b0: 80cb 04be 693c c2bd eedd 5bbc 11d0 07be
000000c0: bd9e 82bd fe8b 03be f494 0cbe 2a88 ab3b
000000d0: 1ab2 32bd a8e2 ed3d 0cb8 84bd 5e6c a3ba
000000e0: dbc3 a5bd e437 1cbe 5cb5 413d 692c 5dbe
000000f0: 13ae 3ebb 6ef5 47bc 7e57 113e 0152 4fbd
00000100: 2b9f efbb 484b 17be a1ca 1ebe ce71 08be
00000110: 424e 51bd e4f5 39be 9629 31bd d672 cebd
00000120: b705 35bd 8bd2 96bd 4f04 173b 039a d2bd
00000130: 0d5a b8bd 9cc0 1fbd 13ef c4bd 1ab3 3d3d
00000140: 912a 91bd b4e6 b1bd 4802 8cbd 131e 3abd
00000150: f0c4 9ebd 0bd6 0fbe 414b 293d 5756 05be
00000160: 5697 13bd c2a4 8d3d c2ca 803d 8138 1bbc
00000170: 98ca 20be c572 013a b87f f23d ec4f 54bd
00000180: e22a 8cbd 0c30 b8bd 2eb9 4bbe dd04 893d
00000190: a052 94bd 9efc 03bd b233 06be 827c 1cbe
000001a0: bef7 efbd 1ac1 f0bc c66e a4bb be52 2fbe
000001b0: 39b7 f33c 4e47 52bd f1c6 a7bd 5c72 85bd
000001c0: 0234 3bbe b4e6 a7bd fee7 0dbe 0da7 9abd
000001d0: b867 d0bc dd99 b3bd f4cc 10bd a28e aebd
000001e0: 2888 6bbd ef29 1abe 48af 12be 652c 2abc
000001f0: 424b d73c 2cc2 dcbc 99ed 92bc 14fb 95bc
00000200: f0a3 e2bd 8b70 99bd ef17 40bc 854c 753b
00000210: 92ba bdbd e08f 5bbd 04ef 02be cab0 75bd
00000220: 4878 ccbb a201 35be ee9c a1bd c99c 953d
00000230: cc29 8b3b 8470 fabc cfb0 ff3d c008 423c
00000240: 74f5 48be cd38 d2bd ecdd 0ebd a2b9 63bc
00000250: 453b e6bc 0f9c 363d 0d06 a5bd 8ce1 19bd
00000260: c357 ee3b f1d2 a7bd db89 34be c90c 37be
00000270: 9c86 9ebd 8e2f 3ebd 590f 43be 5de5 263c
00000280: 379c 5cbc 3696 02be 8b21 87bd 77ee 5ebd
00000290: eae6 0fbe 0683 593d 56ad 54bc 597b 043d
000002a0: 6262 713c 40fc 5bbe 2c03 05bd 7a76 6dbd
000002b0: 8291 8fbd 48e1 a3bd cab7 bfbd 3741 12bd
000002c0: ebd2 d6bd 3f6d c83b 7028 e0bd 50e6 1f3d
000002d0: 9d4a afbd 6bac 6bbd 4ecd 283c 004e 26bc
000002e0: 1a60 7fbe e437 bb3d b86f 02bc 8048 34be
000002f0: 8c9b f3bd 1328 9bbd 6e46 c4bd 76d6 52bd
00000300: 3461 15bd 44eb 043d f1d6 80bd 7783 20be
00000310: f555 24bd f10c 123c cd57 aebe 704b 2dbc
00000320: 6982 c7ba 0f32 74bd 951b b0bd d28c b7bd
00000330: 0c08 963c 86e0 36bd f556 febb 91a8 5ebd
00000340: 326a f1bd 42aa cdbd 4705 29be ab6d ddbc
00000350: af41 98bc 8e23 163e d9d0 4dbd 0a1e b6bc
00000360: 879d 0bbe 86ea 9cbd 84a4 46be 0afe 54bd
00000370: 2048 7bbd dc37 213d 29ec 40be 5bc8 a8bd
00000380: 91dc 17be f357 fabd 0543 49bd 4fba 89bd
00000390: 479e c4bd e518 8dbd fff5 edbd a7fc e8bc
000003a0: a2e0 d7bd 4b4a 82bd 92c4 98bd 2292 cfbd
000003b0: a709 22be b5d4 84bd b2a3 36be 323c 1dbe
000003c0: 849f 0fbe 5d90 0ebc 7513 0cbe f776 2fbe
000003d0: 2ae5 11be 167d 9f3d e85d 1cbd efb8 543d
000003e0: d000 70bd a1da ca3c 7040 e9bd d86a 2abd
000003f0: 2e54 fbbb c480 d0bd 75fb 70be ce06 95bd
-0.053640787 -0.012511474 0.010487245 -0.0355593 -0.15222709 0.008826832 -0.1756729 0.0425642
0.033349417 -0.165436 -0.0025691725 -0.015213117 -0.18017557 0.016974267 -0.113880195 -0.027436228
0.04589917 0.0031911172 -0.012757943 -0.027557537 -0.1218295 -0.08536586 -0.22136205 -0.05348489
-0.04672341 -0.14723386 -0.051275846 -0.05396125 0.0035979631 -0.1276218 -0.018503314 -0.0919605
-0.17976609 -0.056198176 -0.093878806 -0.07056623 -0.04317914 -0.2429278 -0.1914058 -0.039114933
0.053764675 -0.064151846 -0.009016749 -0.09919324 -0.12968254 -0.094841786 -0.013419611 -0.13262965
-0.06377933 -0.12846372 -0.13728696 0.005234738 -0.043626882 0.11615497 -0.06480417 -0.0012468209
-0.08093997 -0.15255696 0.0472921 -0.21598972 -0.0029095456 -0.012204511 0.14193532 -0.050615314
-0.0073126755 -0.14774811 -0.15506984 -0.13324663 -0.051100023 -0.18160206 -0.04325255 -0.10080497
-0.044194903 -0.07364377 0.002304334 -0.10283282 -0.09001551 -0.039002046 -0.09615912 0.046313383
-0.07088197 -0.08686581 -0.068363726 -0.045438837 -0.077524066 -0.14046495 0.041331533 -0.13021217
-0.036032997 0.06916191 0.06288673 -0.009473921 -0.15702283 0.00049380615 0.11840767 -0.051834032
-0.06844117 -0.08993539 -0.19894859 0.06690381 -0.07242322 -0.032223336 -0.13105658 -0.15281871
-0.11717175 -0.029388953 -0.005018088 -0.17121407 0.029750453 -0.051337533 -0.08192242 -0.06515953
-0.18281558 -0.081983 -0.13858029 -0.07551394 -0.025440082 -0.087695815 -0.03535171 -0.08523299
-0.057502896 -0.15055059 -0.14324677 -0.010386561 0.026281003 -0.026948057 -0.017935561 -0.0183082
-0.11066425 -0.07492169 -0.011724456 0.0037429642 -0.09264101 -0.053604007 -0.1278649 -0.059983052
-0.0062399246 -0.17676404 -0.0789126 0.07305295 0.004246926 -0.03057123 0.124848954 0.0118429065
-0.19624883 -0.1026474 -0.03487961 -0.013899239 -0.028104434 0.044582423 -0.08057795 -0.037568614
0.0072736456 -0.08194531 -0.17630713 -0.17875971 -0.077405185 -0.04643207 -0.19048823 0.01018652
-0.013464979 -0.12752613 -0.06598195 -0.054426637 -0.1405293 0.05310347 -0.01298078 0.032344196
0.014732929 -0.21482944 -0.032473728 -0.057974316 -0.07010175 -0.08001953 -0.09361227 -0.035706725
-0.10489448 0.006116539 -0.10945213 0.039038002 -0.08559153 -0.057537477 0.010302855 -0.010150433
-0.24939004 0.0914152 -0.007961206 -0.17605782 -0.118949026 -0.07576003 -0.09583746 -0.051474057
-0.036469653 0.03245093 -0.06290997 -0.1567515 -0.040121038 0.008914218 -0.34051362 -0.010577068
-0.001522136 -0.059618052 -0.08599011 -0.08962406 0.018314384 -0.044647716 -0.007761831 -0.054359976
-0.11787833 -0.1004224 -0.1650592 -0.027029833 -0.018586008 0.14662 -0.050248 -0.02223112
-0.1363431 -0.07661919 -0.19398695 -0.052000083 -0.06134808 0.039359912 -0.18840088 -0.0824134
-0.14830233 -0.12223806 -0.04913618 -0.06724989 -0.096005015 -0.06889514 -0.11619186 -0.028440787
-0.10540892 -0.063618265 -0.07459368 -0.101352945 -0.15823995 -0.06485883 -0.17835882 -0.15354994
-0.14025694 -0.008701411 -0.13679297 -0.17135225 -0.14247575 0.0778753 -0.038175493 0.05193418
-0.058594525 0.024762454 -0.113892436 -0.0416058 -0.007669947 -0.1018081 -0.23533423 -0.072766885

fc3.weight f4 [256, 256]
00000000: 7b53 81bd f415 c83b 801d b5be 1df8 b73b
00000010: 8de6 7dbe 0389 493e 59c4 413e 0563 f4bc
00000020: bd99 9ebc 381d 853d 4f31 4a3c ea18 22bd
00000030: 23bb b73d c815 f6bd 7081 e4bd 01cc b5bc
00000040: 8d07 963c b1aa 4fbd 7efe 75bd 3525 833d
00000050: 5f16 aa3c c452 83bd 9190 ebbc 2cfa 1d3e
00000060: 1908 a2bb 45f9 7a3d ceb4 85bc 017e 0cbe
00000070: 4692 a13c 7a4d 90bd 9863 ecbc a6e8 3c3e
00000080: f895 f13b f43d 53be 625e a8bd cb7e f1bc
00000090: 0528 283d 716f 513d 9e13 4c3c 6e00 91bc
000000a0: 1e5f d33a 21ce 7d3c 6df0 ba3c 0eb6 55be
000000b0: 5f29 6ebd 31bf 8dbd ad08 8f3c 5b4b 89bd
000000c0: 6e92 a63d 05c5 9dbd 3063 f33d 772b 3f3d
000000d0: c5ee 9ebd 2ee6 f9bc f43a 643d c5bb b1bd
000000e0: 1764 c4bd de22 00bc fbcd 0cbe 68ea bc3d
000000f0: 7d87 94bd 295a 61bd ecb0 8abe d831 8abc
00000100: 64d1 d63c 2520 d8bd 5ada 473d 49eb b4bc
00000110: dc8d bc3c 0f44 ad3c 401c e3bc 8a0e b13d
00000120: 02a3 e83c 6566 543d 6b47 cbbc e505 813e
00000130: 4d9b 693d 9f25 c2bb 8eaa 07be 7b78 56bd
00000140: 6095 1bbe f077 10bd f65b b5bc 21c7 c83c
00000150: 6f90 b93d 9f76 9abc 7efc 2fbc 5fec a33d
00000160: 6eef 003c df13 07be c5d4 15bd 416b 93be
00000170: f989 b63e e064 90bd 43d3 2b3e 909b 2b3d
00000180: 4f42 d13d 38f3 aa3b d56e 193e bdf3 b2bd
00000190: 31ce 36be 9d8f dd3d 9458 cebc e4ba 173e
000001a0: 3389 32be c288 a63d d0bb 15be 5b41 53bd
000001b0: b669 473d 9905 edbc d7bb 71bd 8e2c 2cbd
000001c0: 05eb e2bd 9ce3 9e3d 06e5 553c 314e 34bd
000001d0: 4a09 673c 04b9 b7bc 5eea 923b 5022 0d3c
000001e0: 8f79 563d cbe2 e53d d1af d4bd ba69 ab3c
000001f0: 908c 9abb cd4c a7bd a179 143e c4e9 b6bc
00000200: fd2b 893d 5c95 8c3d 7394 2c3e 7808 5e3d
00000210: 4f1b 473d 5486 403d 7b9e e93c 5157 82bd
00000220: 7880 253e 789b 4c3d 7898 30bc 22d3 c53b
00000230: 0179 d2bc 442b 603e 97d1 493d 2d6b 833d
00000240: 3f33 a8bd cfca 363e 5e2c c73c 9929 90bd
00000250: 1d7f 29be 82d3 15be a928 633d 86f4 523d
00000260: dbaa 22bd 5fe8 5ebe 4a93 ed3d a55d 81bd
00000270: 683b ce3d 7ed1 91bd d02a 92bd 5115 053e
00000280: f530 be3c 37b2 7dbe fe28 023d d394 6d3d
00000290: a277 6a3d c9dc ea3d 4fe1 a6bc 2a63 e73d
000002a0: 431c 0fbc fe61 d13d d4ee 90bc 58db 8c3d
000002b0: 6ac6 c83c 9511 7bbe b8d7 91bc d106 24bb
000002c0: e6eb 913d 78cc 59bc 40db 3bbd b309 2a3d
000002d0: 59df ce3d 31f8 a03d b9a7 b6bd 860e 93bc
000002e0: c1a2 61bd 22a4 67bd 8b79 113e abfe 013e
000002f0: 75ea 41bb b90f 463d 0461 28be 2f57 803d
00000300: b45b 3abd 4107 c1bc d4fd 253e cc68 d6bd
00000310: 8dc1 c5bc bda4 5a3d 01ee 933d 6b31 91be
00000320: 200f 27bd fb69 31be 18ae 2bbe efd6 223b
00000330: 473d acbe 7402 9a3d 1269 463d fa5a 37bd
00000340: 06ac 43be cedc 8e3d 297f 0d3d 640a 90bc
00000350: 49ae 433d ba30 05be 3923 1cbe 026d cdbc
00000360: 5021 0abd 0dab d8bc 5d05 c1bc 83d3 fbbd
00000370: 0034 e0bd 8a00 59be 9fb0 2ebe 766f 66bc
00000380: 36a4 62be bc97 7fbd 6cad 563d 4535 a7bd
00000390: 7a77 91bd 13c2 6bbd 25c1 ebbd 26aa db3d
000003a0: 0987 4bbe b897 9abe 6102 81bd 16d9 c23a
000003b0: aba2 003c 88e3 633d 45fc 4c3e 66cd 473d
000003c0: 5950 01be 4e9e d63d 6029 98bb 6972 b03d
000003d0: a17c c03d d8d3 19be 6152 88bd c0d2 40be
000003e0: 618c 7ebd ca8e 8abd b4a3 aa3d ef0e e5bd
000003f0: 0d90 29be 65e3 d2bd 7257 a0bd 39d4 793d
-0.06314751 0.0061061326 -0.3537407 0.005614294 -0.2479498 0.19681172 0.18922557 -0.029832372
-0.019360418 0.06499714 0.012340858 -0.03957454 0.0897124 -0.12015873 -0.11157501 -0.022192003
0.018314147 -0.050699893 -0.060057156 0.06403581 0.02076262 -0.06412271 -0.028755458 0.15427464
-0.004944813 0.06127288 -0.016321566 -0.13719942 0.019723069 -0.070460275 -0.028856084 0.18448123
0.007372614 -0.20629102 -0.08221127 -0.029479405 0.04105379 0.05113167 0.012455849 -0.0177004
0.001612637 0.0154910395 0.022819722 -0.2087023 -0.058144923 -0.069212325 0.017460192 -0.06703826
0.08133398 -0.07703594 0.11884153 0.04667231 -0.077603854 -0.030505266 0.055720285 -0.08678392
-0.09589403 -0.007820813 -0.1375045 0.09224397 -0.07252405 -0.055017624 -0.27088106 -0.01686947
0.026222892 -0.10553006 0.04879222 -0.022084849 0.023016863 0.021150617 -0.027723432 0.08645351
0.02839804 0.051855464 -0.024814328 0.2519981 0.057032872 -0.005924895 -0.13248655 -0.052360993
-0.15193701 -0.03527063 -0.022138577 0.024509015 0.09060752 -0.018855391 -0.010741351 0.080040686
0.0078695845 -0.13191174 -0.036579866 -0.28792766 0.3565214 -0.070504904 0.16779809 0.041896403
0.102177255 0.005216982 0.14983685 -0.08737896 -0.17852093 0.10818408 -0.025188722 0.14817387
-0.1743515 0.08131553 -0.14622426 -0.051576 0.0486848 -0.028933333 -0.05901703 -0.04203468
-0.11079983 0.07758257 0.013055092 -0.04401988 0.014101336 -0.02242709 0.004483505 0.008614138
0.05236202 0.11224898 -0.10385097 0.020924438 -0.0047164634 -0.081689455 0.14499523 -0.022328265
0.06697843 0.068644255 0.16853504 0.054207295 0.048610028 0.047003105 0.028517952 -0.063643105
0.16162288 0.049952954 -0.010778539 0.006037132 -0.025692465 0.21891505 0.049272146 0.064169265
-0.082128994 0.17850803 0.024313148 -0.07039184 -0.16552396 -0.14631465 0.0554587 0.051502727
-0.03971372 -0.2176833 0.11600359 -0.063166894 0.100699246 -0.071200356 -0.07137072 0.12996413
0.023216704 -0.24775015 0.031777374 0.058003258 0.057242997 0.11467893 -0.020371107 0.11298211
-0.008734765 0.10223769 -0.017692007 0.06877774 0.024508674 -0.24518426 -0.017803058 -0.0025028477
0.07125072 -0.013293378 -0.04586339 0.041513156 0.10101194 0.07859839 -0.08918709 -0.017951261
-0.055086855 -0.056553014 0.14206521 0.12694804 -0.002958921 0.048354838 -0.16443259 0.06266629
-0.04549761 -0.02356303 0.16210109 -0.10469207 -0.024140144 0.053379763 0.0722313 -0.28358015
-0.04078591 -0.17325585 -0.1676563 0.0024847349 -0.336405 0.07519999 0.048440047 -0.044764496
-0.1910859 0.06975709 0.034545098 -0.01758308 0.047773633 -0.13006869 -0.15247811 -0.025076393
-0.033723176 -0.02644875 -0.023562128 -0.12296202 -0.10947418 -0.21191612 -0.17059563 -0.01406466
-0.22132954 -0.062400565 0.05241148 -0.08164457 -0.071028665 -0.05755813 -0.11511449 0.107258126
-0.1987573 -0.30193877 -0.06299282 0.0014865722 0.007851283 0.055636913 0.20018108 0.048779868
-0.12628306 0.10479413 -0.004643604 0.08615572 0.09398771 -0.15022218 -0.066563375 -0.18830395
-0.062145595 -0.06765516 0.08332005 -0.11184489 -0.16558857 -0.10297278 -0.07829179 0.060993407

fc3.bias f4 [256]
00000000: 4932 893d 44d1 edbd 5605 12be 097d 0bbd
00000010: 9f40 483d 5668 45bd 2b29 13bd 2fb9 6abb
00000020: a151 143e 8501 8abd 623c bfbc 45be 25bc
00000030: d8a3 d8bd 5e77 a43d 59ba 46bd 69ef 2e3c
00000040: 1ee0 b23b bd31 aabd 1152 23bd abb9 0bbd
00000050: fc21 b13d e3a9 c2bd 5cb7 47be aef6 533e
00000060: 7523 d93d 6bd4 79bd 62ad 31bd 7929 183e
00000070: fa3c 70bd fd6b 46bd ec15 ffbd 98fd 37bd
00000080: 3b6b 0a3e 4615 7fbd aa49 4d3d 1297 90bd
00000090: 455a 8bbd 6f04 9a3c cbca c3bb b5ab 06be
000000a0: 5109 b0bc 3afd ba3c 5cc0 a73d 0486 013d
000000b0: 5968 18bd 6ec1 2a3e 48b5 f13d 9941 c7bb
000000c0: fc64 21bd c2a0 9e3d 8869 07ba bd1b 3c3d
000000d0: b027 93bc 341e a93d e09e febd 3284 6dbb
000000e0: 2f57 04bd ccbb a5bd 8203 8dbc 6f95 80bd
000000f0: 39a4 b8bd f8ea 2ebe a022 b2bd 36b7 123e
00000100: 6a38 573d 3764 13bd 1a2a 29bd 0d02 f13c
00000110: cf57 c33c 8006 e5bc 6ef1 8bbd 5c12 143d
00000120: 529c 09be 055c 35be 69b4 b2bc da0c 20bd
00000130: 6a9a 18be b791 27bc 20e8 52be eb26 9a3d
00000140: 3899 62bd 9e8d c0bd 9c56 17be 274c 37bd
00000150: 478c 203d 2a8a cfbd 05ff a63d 3977 b73c
00000160: 4001 cf3c 9a8d ce3d e19b babd e534 b7bd
00000170: 20c1 933d 5649 f0bd 4a2d 4ebd 0c0a 15be
00000180: 831d 08be f3b5 b1bc acbf 9a3c 3656 0dbe
00000190: b1e1 3e3d 8b49 37bd 0600 44bd 26fa 24bd
000001a0: 043c 643d a124 2ebc b3ae 2fbd 8201 243c
000001b0: a80b e5bd 5b59 ef3c 0cb7 29bd 3640 883d
000001c0: 1cc4 ebbd 6fd1 a63c 97fc 33bd 89ee 78bc
000001d0: 2636 c3bd 55d9 ecbb 92a1 55be 6b9d 70bd
000001e0: 5b16 cd3b 9069 0a3e 33bb 0f3e 444f 28bd
000001f0: 8824 70bd 3f12 b5bd 7cd7 22be d333 0c3e
00000200: d350 cebd ab7f 5d3e ce73 ffbb 7513 d43d
00000210: 55ae 3c3c 9e9a 87bd 1b77 d8bd 753e 82bc
00000220: f9bd 2dbd d589 22bc b66d 8abd 32b0 473d
00000230: 483f 04be 37dd 3fbe fd25 b93c fcf1 9ebd
00000240: c53f cb3c 0ed7 2cbd 18bb 2abe 5d29 68bd
00000250: 3c35 2dbe 5c6b 353d 9b98 febd e5bd cc3d
00000260: 3489 c7bc d217 0b3e 2d39 a2bd 2fda 833b
00000270: 5780 ecbd 53eb 6e3e 866b edbd 26d9 11be
00000280: e469 dbbd 6f03 d23d de24 8ebd 7671 3e3e
00000290: ec56 bbbd 623f 26bc ce20 943d f136 51be
000002a0: d2bc 80be 485c 8abd 810e 71bd 242c a1bd
000002b0: e01b 8c3e 373f d4bd 53a9 93ba cbc2 2d3d
000002c0: c139 7dbe f22d 3dbe bb19 16be 2693 c8bd
000002d0: 5687 943d 34ee 003d 2093 933d 939a 913d
000002e0: dbb4 3fbd edc0 1abd 3e61 ad3d b010 e1bd
000002f0: 306b 85bd 6f06 5fbe 2d23 38be 8195 973d
00000300: 79b6 793d 9669 14bd bdf0 ba3d f641 ac3c
00000310: ad51 43bd bef4 84bd bfc4 6d3c 3c40 8ebc
00000320: 296d 26bd e77e fabd e57c 31bd 3e94 08be
00000330: f63f 04be 8997 00bd be6f 0cbd 0866 93bd
00000340: c07c f9bd b9fa 33be f23e 28be 472b 00be
00000350: 5e29 903d 22fe a6bc 30f8 013e 1755 b6bb
00000360: 98bd 27bd 480a 0d3e 8bb2 e2bd 55a4 26bd
00000370: e8b5 13bd 1d58 89bc 1764 983d 103a d6bd
00000380: 68d4 943d cdc6 49be 4b07 8d3b 7a1d bfbd
00000390: 0607 81bd 0ad8 453d 7a73 9fbc f26a 1bbe
000003a0: c4a2 8bba 1060 21bd d8fd 15be 242a 2cbe
000003b0: 62f8 2b3d 1a13 463c ef48 13be 1c50 11be
000003c0: 3707 7cbd d783 1dbd 2646 343d b5f6 c4bd
000003d0: 1ef2 d03d f531 18bd 7c2b 10bc b816 28bd
000003e0: 4986 acbd 5c03 83bd bf5c 76bc 432f 7ebd
000003f0: f8e6 a6bd 5e88 543d 5112 01bd 3d68 8abc
0.06699044 -0.1161218 -0.14259848 -0.03405479 0.048889752 -0.048195206 -0.035927933 -0.0035815944
0.14484264 -0.06738571 -0.023344222 -0.010116165 -0.10578126 0.0803058 -0.04851756 0.010677197
0.0054588458 -0.08310268 -0.039873186 -0.034112614 0.0864906 -0.095050596 -0.1950354 0.2069957
0.10602466 -0.060993593 -0.04337824 0.1485957 -0.0586519 -0.04844283 -0.12455353 -0.04491958
0.13517468 -0.062276147 0.05011908 -0.070600644 -0.06804327 0.018800942 -0.0059751025 -0.13151439
-0.021488817 0.022825826 0.081909865 0.031621948 -0.03720889 0.1667535 0.11802155 -0.006080818
-0.039402947 0.07745506 -0.00051655667 0.04592489 -0.01796326 0.08257714 -0.12432647 -0.0036242125
-0.032309707 -0.0809246 -0.017213587 -0.06278502 -0.09015698 -0.17081821 -0.086980104 0.14327702
0.052544035 -0.035984244 -0.041299917 0.029419923 0.023845581 -0.027957201 -0.068331584 0.03615032
-0.13438538 -0.17710884 -0.021814542 -0.039074756 -0.14902654 -0.010227612 -0.20596361 0.07526954
-0.055321902 -0.09402011 -0.14779133 -0.04475036 0.03919628 -0.101337746 0.0815411 0.022395717
0.02526915 0.10085602 -0.09111763 -0.08945636 0.0721457 -0.11732738 -0.05033616 -0.14554614
-0.13292508 -0.021693205 0.018890224 -0.13802418 0.046601955 -0.04474787 -0.047851585 -0.040277623
0.055721298 -0.01062885 -0.042891216 0.010010125 -0.11183864 0.029217413 -0.041434333 0.06652872
-0.11512014 0.020363538 -0.04394206 -0.01519359 -0.09531812 -0.0072280564 -0.20862415 -0.058743875
0.0062587685 0.13516831 0.14036255 -0.04109122 -0.05862859 -0.08841371 -0.15902513 0.13691644
-0.1007401 0.21630733 -0.0077957874 0.10355274 0.011516173 -0.06621288 -0.105695926 -0.015898922
-0.0424175 -0.009920557 -0.06759207 0.048752017 -0.12914765 -0.1873673 0.022601122 -0.077609986
0.024810681 -0.04219728 -0.16672933 -0.056680072 -0.16914839 0.04429184 -0.12431451 0.09997157
-0.024357416 0.13583305 -0.07921062 0.0040238122 -0.115479164 0.23331957 -0.11592774 -0.14242992
-0.107135564 0.10254561 -0.069406256 0.1859797 -0.091474384 -0.010146948 0.072328195 -0.20431115
-0.25144058 -0.067558825 -0.058851723 -0.07869747 0.27365017 -0.1036362 -0.0011265673 0.042422097
-0.24729063 -0.18474558 -0.14658253 -0.09793691 0.07252376 0.03147717 0.07205796 0.07109561
-0.046803337 -0.037781645 0.08465813 -0.10989511 -0.06514585 -0.21779798 -0.17982168 0.074015625
0.060965035 -0.036233507 0.091279484 0.021027546 -0.047685314 -0.06491993 0.01451224 -0.017364614
-0.040631447 -0.12231236 -0.043332 -0.133378 -0.12915024 -0.031394515 -0.034286253 -0.07197195
-0.12181997 -0.17576112 -0.16430262 -0.12516509 0.0703914 -0.020384852 0.12692332 -0.0055643427
-0.040952295 0.13773453 -0.110692106 -0.040684063 -0.03606215 -0.016765648 0.074409656 -0.10460293
0.07267076 -0.19704743 0.004303848 -0.09331794 -0.06300168 0.048301734 -0.019464243 -0.15177515
-0.0010653366 -0.039398253 -0.14647615 -0.1681295 0.041984923 0.012089515 -0.1438329 -0.14190716
-0.061530318 -0.03845581 0.04401221 -0.09617368 0.1020243 -0.037157018 -0.00879943 -0.04103729
-0.0842405 -0.06397125 -0.015036761 -0.06205679 -0.081495225 0.051887862 -0.03151161 -0.016895408

action_out.weight f4 [3, 256]
00000000: bc64 ae3c de14 ac3d 452e 8cbc 5591 623e
00000010: d607 90bb 65c6 11bd 72af 4bbe 3919 8bbd
00000020: f237 c3bd c63d 39be e97c ea3e 3a1d dabc
00000030: 6cb4 b9bd f266 013e 0b07 783e cce4 3fbe
00000040: 9e1f c2bc 9f06 bdbe eac0 6f3e 0549 d03e
00000050: 7b07 0e3d 7a95 133e 8ffe 803d f0cb a83c
00000060: dc59 14bd 9a6c 9a3d 3f98 14be e220 2a3e
00000070: 50ed 4abd e043 123e 39eb bfbe a46c 6dbe
00000080: 7273 843e bb5a 423d 5173 9b3e ee23 423e
00000090: 552f 4cbd 4dc0 2dbe a29a bdbe 3419 9ebd
000000a0: eb36 0fbd 1089 673d 6871 293e b745 523e
000000b0: dd7c 84bd f652 f6bc 3870 f23e 4d82 af3d
000000c0: d3ed 403d cc63 503e e0ab 883d 4899 833c
000000d0: bc8b c7bd e009 fb3d 47a1 bebe cf0d 08bd
000000e0: bafd 3bbe 5234 323e fd1e fe3c ad7c 663d
000000f0: 23d0 11bd efdc be3e 3abf 463e cf51 633d
00000100: f38b b03c 9674 17be a040 34be 44a2 393e
00000110: b6fc 9d3e 0f43 8b3e 1a47 39be bfc7 e53d
00000120: 2d45 be3e 3ba8 ecbe 3982 9d3b 3172 50bd
00000130: cb93 c93c 408d 223e c33e 383b be36 b1bd
00000140: 0bb2 263a 3e9d 013e bcfd 56bd 23a3 7cbd
00000150: 5820 2c3e 9f85 29be a4e8 f93d 1a6d e73d
00000160: dcff 0e3a b3bc 913e 14d5 dcbb 71a7 bc3e
00000170: a582 833c 9755 9cbc f52a 0dbc 4a0c ccbc
00000180: 487d 083c e3f0 89bd 45c0 5a3d 6588 e93e
00000190: e2c3 9b3d d374 813d 8e62 873e d670 2cbc
000001a0: ae64 11be d4f8 8bbc 4e0d 2e3c ef88 033d
000001b0: cf86 e53c 1044 a23d 9619 35bc c57f 2a3e
000001c0: b378 ec3e fa7c d53d 03b7 eabe d80a 253e
000001d0: c8be fb3d 1853 383c ca77 bdbd f05d 913d
000001e0: c8e9 0f3e 31cb 0dbe f0f8 e93c 8652 87bb
000001f0: a6f4 013e 8fe4 bfbc 8274 eabc d04c c63d
00000200: de59 013e 4f63 ec3e 8c9d 5dbc b399 ac3e
00000210: 3d9e 223e 29fd c13c 84c0 d3bd 994a 00bd
00000220: b2f9 713e 668a 1c3e 23c9 7e3e 4e68 e83d
00000230: f82c 9cbe 436a 1bbe 55c4 643e 372a c53e
00000240: 27d8 b13e fdc3 dabe 70b0 0ebd f02f 69be
00000250: ebe0 de3c aa61 073e 6ee9 a93d 2a66 943d
00000260: dd8b 803b ef07 003e 81ad c6be 2b28 83bd
00000270: ab38 7b3d 51bd 833e d7dd 9b3d 0fc3 debe
00000280: 2b1f 413e 8ba1 e73b d8c5 32bd d75a 00bd
00000290: 4182 683b c8a6 ea3d a7b5 24be b691 0dbd
000002a0: 3ebf 523b 8ba5 da3d 8e43 8e3e 9d79 21bd
000002b0: 42c3 7d3e e4a3 b0bb 220d a23e 4488 60be
000002c0: 8234 943d f930 a4bd f45d 913d 1065 1a3c
000002d0: 60ed 94bb dc77 19bd cd1d 233d 57c1 f7bb
000002e0: 1c1e 923e ea4d 153e e57d b8bd bdb8 85be
000002f0: 5041 aa3b e55c d23e b61f ecbd 3c63 253e
00000300: d14f 5b3e 882e 16be c126 a33e d70d 823e
00000310: 49b0 e3bd 67b8 33be b4a4 c3bd 8b8a 06be
00000320: 85e3 00bc 0c91 48bd 00bf 0dbd bd74 eabd
00000330: e7c6 843d b219 233e f53a e23d ded2 21be
00000340: a398 98be 8f56 4abc 03b7 edbd 2ca5 a7be
00000350: a243 413e 2505 a8bb 2a6b 3fbe 209d 33bd
00000360: 634f 193e 312e b13d 46c9 27be 0c8a 393d
00000370: a0a2 b3be 6e36 cfbd a8e6 fbbd 1875 f9bd
00000380: e379 06be b176 90bd 6528 3bbd 8545 c63d
00000390: 4045 b3bc 5ccb 773e 5c09 5bbd d9fd 8abd
000003a0: 87d7 d03d 81e4 643e 94a7 2cbd 3ae0 313c
000003b0: 7396 d7bd 8e5e 8cbe 791e c63e e06b 1b3d
000003c0: 6da7 80be 478b 4b3e da8a 5a3e 55fc 16bd
000003d0: b4aa a53e 816a da3e 4327 5a3e f3b7 8dbb
000003e0: fb67 8ebd 8ff7 2d3d 9b49 8fbc fc47 7ebe
000003f0: 0f2d 58be f073 833e f8f7 d9bd d420 2fbe
0.021288268 0.084024176 -0.017111907 0.22125752 -0.0043954654 -0.035589594 -0.19891146 -0.0679192
-0.09532155 -0.18089971 0.45798424 -0.026625264 -0.09067616 0.12636927 0.24221437 -0.18739623
-0.023696717 -0.36919114 0.23413435 0.4068071 0.034675103 0.1441249 0.06298553 0.020605057
-0.03621851 0.07540245 -0.14511202 0.16614106 -0.049542725 0.14283705 -0.37484148 -0.23185974
0.25869328 0.04744981 0.30361417 0.18959019 -0.049849827 -0.16967888 -0.37032038 -0.07719651
-0.034964483 0.056527197 0.16547167 0.20534407 -0.06469128 -0.030068856 0.4735124 0.08569775
0.047101807 0.2035057 0.066734076 0.016064301 -0.09743449 0.12257743 -0.3723242 -0.033216294
-0.18358508 0.17402771 0.031020636 0.056271244 -0.035598885 0.37277934 0.19408885 0.05549794
0.021551108 -0.14790568 -0.17602777 0.18128306 0.30856866 0.271996 -0.1809353 0.11219739
0.37162152 -0.462221 0.0048067835 -0.05089015 0.024606606 0.15874195 0.002811358 -0.08653019
0.0006358928 0.1265764 -0.052488074 -0.061679017 0.16809213 -0.16554879 0.12202576 0.11300106
0.0005454996 0.2846428 -0.006739268 0.36846498 0.016053507 -0.019083781 -0.008616199 -0.024908204
0.008330651 -0.067353986 0.05340602 0.45611873 0.07605721 0.063211106 0.2644238 -0.010524949
-0.14198563 -0.017086424 0.010623289 0.032113012 0.028018383 0.07923138 -0.011053463 0.16650303
0.46185836 0.10424228 -0.45842752 0.16117418 0.12292248 0.01125028 -0.092513636 0.07097995
0.14054024 -0.13847043 0.028561085 -0.0041297106 0.12690982 -0.023424415 -0.028620008 0.096826196
0.12631938 0.46169516 -0.013526332 0.33711013 0.15880676 0.023680286 -0.10339454 -0.031321142
0.23630407 0.1528717 0.24881415 0.113480195 -0.30503058 -0.15177254 0.2234052 0.3850877
0.34735224 -0.42727652 -0.034836233 -0.22772193 0.027206859 0.1322085 0.08296476 0.07246049
0.003922923 0.12503026 -0.38804248 -0.06404146 0.06133334 0.25730374 0.07610672 -0.43508193
0.18859546 0.007068818 -0.04364571 -0.03133663 0.0035478028 0.11457592 -0.1608492 -0.03456279
0.0032157446 0.10676106 0.27785915 -0.03942262 0.24781516 -0.005390631 0.31650645 -0.21926981
0.072365776 -0.08017153 0.07097998 0.009423509 -0.004544899 -0.037467822 0.039823342 -0.0075608897
0.28538597 0.14580503 -0.090083875 -0.26117507 0.005195774 0.41086498 -0.11529486 0.16151136
0.21417166 -0.14666188 0.31865504 0.25401184 -0.11117608 -0.17550813 -0.09552899 -0.13138787
-0.007866745 -0.048966452 -0.03460598 -0.11448047 0.0648325 0.1592777 0.110464014 -0.15803096
-0.29803953 -0.012349739 -0.11607172 -0.32743204 0.18873456 -0.0051275664 -0.18693224 -0.043851018
0.1497169 0.086513884 -0.16385373 0.045297667 -0.3508501 -0.101178035 -0.122998536 -0.12180537
-0.13132434 -0.070538886 -0.04569282 0.096812285 -0.021883607 0.24198669 -0.053475723 -0.06786699
0.101973586 0.22352792 -0.042152002 0.010856682 -0.10526743 -0.2741589 0.38695124 0.037944674
-0.25127736 0.19877349 0.2134203 -0.036861736 0.323568 0.4265938 0.2130404 -0.004324907
-0.069534265 0.04247242 -0.017491153 -0.24832147 -0.21110938 0.2567439 -0.106429994 -0.17102367

action_out.bias f4 [3]
00000000: e737 b5bc f83a 3f3e 9dd4 28bd
-0.022121383 0.18674839 -0.04121839
